…
    "    Dropout(0.2),\n",
    "    Flatten(),\n",
    "    Dense(512, activation='relu'),\n",
    "    Dense(3)\n",
    "])"
   ]
  },
  {
   "cell_type": "code",
   "execution_count": 26,
   "metadata": {},
   "outputs": [
    {
     "name": "stdout",
     "output_type": "stream",
     "text": [
      "Model: \"sequential_3\"\n",
      "_________________________________________________________________\n",
      "Layer (type)                 Output Shape              Param #   \n",
      "=================================================================\n",
      "conv2d_7 (Conv2D)            (None, 150, 150, 16)      448       \n",
      "_________________________________________________________________\n",
      "max_pooling2d_7 (MaxPooling2 (None, 75, 75, 16)        0         \n",
      "_________________________________________________________________\n",
      "dropout_6 (Dropout)          (None, 75, 75, 16)        0         \n",
      "_________________________________________________________________\n",
      "conv2d_8 (Conv2D)            (None, 75, 75, 32)        4640      \n",
      "_________________________________________________________________\n",
      "max_pooling2d_8 (MaxPooling2 (None, 37, 37, 32)        0         \n",
      "_________________________________________________________________\n",
      "conv2d_9 (Conv2D)            (None, 37, 37, 64)        18496     \n",
      "_________________________________________________________________\n",
      "max_pooling2d_9 (MaxPooling2 (None, 18, 18, 64)        0         \n",
      "_________________________________________________________________\n",
      "dropout_7 (Dropout)          (None, 18, 18, 64)        0         \n",
      "_________________________________________________________________\n",
      "flatten_3 (Flatten)          (None, 20736)             0         \n",
      "_________________________________________________________________\n",
      "dense_6 (Dense)              (None, 512)               10617344  \n",
      "_________________________________________________________________\n",
      "dense_7 (Dense)              (None, 3)                 1539      \n",
      "=================================================================\n",
      "Total params: 10,642,467\n",
      "Trainable params: 10,642,467\n",
      "Non-trainable params: 0\n",
      "_________________________________________________________________\n"
     ]
    }
   ],
   "source": [
    "model.compile(optimizer='adam',\n",
    "              loss=tf.keras.losses.CategoricalCrossentropy(from_logits=True),\n",
…
